bhavya_backend/services/inference/studentlife_model_v1.pt (torch, 58197 bytes, 9 tensors)

lstm.weight_ih_l0 f4 [128, 5]
000000 98 b1 7c bb 06 98 0f 3d f3 77 fd bd e2 e2 0f 3e
       -0.0038558003 0.03505709 -0.12376394 0.14051393
000010 30 ef fb 3d 66 d2 aa 3d d5 8e 34 3e 5e 83 0d be
       0.12301481 0.083409116 0.17632611 -0.13819644
000020 ac d8 0c 3c b4 cf 26 3d 6d 53 2c 3e 06 bd bf 3d
       0.0085965805 0.040725425 0.168287 0.09362225
000030 c2 72 18 be 5c 95 82 bd 1c ae 14 3d 49 75 0d 3e
       -0.14887527 -0.06376144 0.036298856 0.13814272
000040 86 74 55 be 3b 38 09 3e bb bc d9 bd 99 36 14 be
       -0.20845231 0.13400356 -0.106317006 -0.14473952
000050 d4 27 4f 3d 11 eb a6 bd fc 9b 35 3d 98 fd c9 3d
       0.050575092 -0.08150304 0.04433821 0.09862822
000060 9d 7a 87 bd b1 1a bb bd 04 05 fc bd 19 ec ee 3b
       -0.066151835 -0.0913595 -0.12305644 0.0072913286
000070 fe c6 ef 3d d9 de 05 3e 71 af 1c 3b 3f 54 9c 3d
       0.117078766 0.13073291 0.0023908282 0.07633256
000080 e2 d3 a3 3d f9 24 a3 3d 2e 8e 98 bb 4e 7f 30 3c
       0.07999398 0.07966036 -0.004655621 0.010772539
000090 73 ce 99 3b 76 79 1a 3e 1e 7f a3 3d 77 52 21 be
       0.0046938 0.15085396 0.0798323 -0.15754114
0000a0 8e d1 49 3e 15 ee 52 3c 1d d3 e9 bd be 66 b2 bc
       0.19708845 0.012874146 -0.1141722 -0.021777507
0000b0 d2 b4 4d bd c7 41 55 3d 1a 6c b7 3d 22 0b cc bd
       -0.05022127 0.052064683 0.089561656 -0.09963061
0000c0 04 47 98 bb 8f a1 0f 3e f4 29 02 3e ea ed 57 bd
       -0.0046471376 0.14026473 0.12711316 -0.052717127
0000d0 e1 61 30 bd fb c1 3a bd aa c4 f2 3d 5e 82 03 3e
       -0.043062095 -0.04559515 0.11853917 0.128427
0000e0 e1 53 f8 bc a3 29 af bd cf 2c 3e 3d c5 bf a5 bd
       -0.030313434 -0.085528634 0.04642945 -0.08093218
0000f0 a0 83 e2 3d e3 bd 8d 3d e1 08 5c 3d 6e 0c f8 ba
       0.11060262 0.06920984 0.053719405 -0.0018924603
000100 8b f4 cf 3d 08 23 7b 3c ad cf ff 3d 7d 4e 0d 3c
       0.10154065 0.015328176 0.12490783 0.00862467
000110 9e 7f 21 3d 4b a7 bb bd e8 43 0c be c0 71 52 3e
       0.039428346 -0.09162768 -0.13697779 0.20551205
000120 d1 f2 f1 bd 4b f5 13 be 63 c9 20 3e 2a f6 7b bd
       -0.11813892 -0.1444904 0.15701823 -0.061514057
000130 f0 53 55 3d bc ad d9 3d 2d 39 21 be 7e ed 0b 3e
       0.052082002 0.1062884 -0.15744467 0.13664815
000140 c4 79 0a be f1 3f d6 3c de 01 f2 3d 61 fc c0 3d
       -0.13523012 0.026153537 0.118167624 0.094231375
000150 23 26 21 be 37 b5 95 bd c3 88 64 bc 98 ab 37 bd
       -0.15737204 -0.073099546 -0.013948622 -0.04484138
000160 5d e1 98 3c cd 53 67 bc 3e 11 77 bd 9f fd c9 3d
       0.01866215 -0.014119101 -0.060319178 0.098628275
000170 51 d2 95 3d 99 57 ef 3b 82 d1 20 3c 8a 0d 78 bd
       0.07315505 0.0073041436 0.009815576 -0.060559787
000180 c2 99 8f 3d 10 ad ed bd 05 a0 15 3c 7f 2b 0f 3d
       0.07011749 -0.11605275 0.00913239 0.03495359
000190 08 89 20 be 34 0a 29 be 4f 47 06 be a3 2f c5 bd
       -0.15677273 -0.16507798 -0.1311314 -0.096282266
0001a0 59 df 97 3d 7b 2e 1a bc 37 dc c6 3d ae 47 00 3d
       0.07415647 -0.009410496 0.097099714 0.03131836
0001b0 a9 60 55 3e fa ba 04 3d cd 8c 15 3e a9 b8 9c bd
       0.20837654 0.032404877 0.14604492 -0.07652409
0001c0 73 0b b9 3d 0a b3 c3 bd 9b 67 e5 bd e6 b3 29 3e
       0.09035387 -0.09555633 -0.11201402 0.16572532
0001d0 35 0d 93 3d ae 19 70 bd 10 78 cf 3d 2e 46 17 3e
       0.071802534 -0.05861824 0.10130322 0.14772865
0001e0 32 25 86 bd 2c 0b f7 3c 80 11 3d 3e f5 77 b5 3c
       -0.06550063 0.030156694 0.18463707 0.022151927
0001f0 e4 ea 9c bd 3f e0 29 3e e7 ff d1 bd 1c f1 ed bc
       -0.07661989 0.1658945 -0.102538876 -0.029045634
000200 a5 6d 12 3d a1 7d 58 3c 24 65 87 3d 67 ad ab bb
       0.035749096 0.013213546 0.06611088 -0.005239177
000210 04 98 23 be 2e bf 3e bd 5d 21 73 3d 35 1c d2 3d
       -0.15975958 -0.046569042 0.05935799 0.10259286
000220 91 84 05 be a7 f0 d4 3c cb 6e 93 3d 3c ef 40 3e
       -0.13038851 0.025993658 0.071988665 0.1884126
000230 1d fd 8f 3d f6 fd da 3d ca 8e 17 be 61 9c 16 be
       0.070306994 0.106929705 -0.14800563 -0.14708091
000240 27 8c e1 3d ae 88 dc 3d 7f 99 1e 3d 67 cb 1d 3e
       0.1101306 0.10768257 0.038720604 0.15409623
000250 ba d7 41 bd f5 69 e7 bd c2 bc 3f bd 5b 79 24 bb
       -0.047324874 -0.112995066 -0.046810873 -0.0025096748
000260 bb ba 92 bd 0d e9 29 be 3a f2 01 be ff 78 5a 3d
       -0.07164522 -0.16592808 -0.12690058 0.053338047
000270 02 46 72 bd 40 f7 77 bd 95 2a a4 bc ed 7b 36 3e
       -0.059148796 -0.06053853 -0.020039836 0.17820711
000280 0b 10 c0 3c 0d 15 c0 3c 65 2c d7 bd 04 c1 a8 3d
       0.02344515 0.023447538 -0.105065145 0.0823994
000290 3a 5b dd bc b8 07 fd bd 9e 5e 18 be 1f 22 8a 3d
       -0.02702104 -0.12354988 -0.14879844 0.06744789
0002a0 c4 0c 8d 3d 56 7b 06 3d 11 cc 04 3d f5 1c 16 be
       0.068872005 0.032832466 0.032421175 -0.14659484
0002b0 24 63 9e 3d 35 64 8f bd c2 7a bb bd 64 4c 15 3e
       0.07733753 -0.07001535 -0.091542736 0.14579922
0002c0 8b 79 9f 3d 4f 27 23 3e 1c 5c d6 3d 37 fc 1b 3e
       0.07786854 0.15932964 0.10466787 0.15232931
0002d0 58 86 92 bd 2c ce 2f 3d a2 f9 e2 bd ea d5 2c 3e
       -0.0715453 0.04292123 -0.1108277 0.16878477
0002e0 a0 fe 1b 3e 82 84 ab 3c a8 d8 81 3d d7 51 56 be
       0.1523385 0.020937208 0.06340152 -0.20929657
0002f0 70 86 a1 bc 13 d6 bc 3d 4b 04 0b 3b 24 1c 08 be
       -0.019717425 0.09220519 0.0021212276 -0.13291985
000300 1e ba 9e bd a0 b9 b6 bb e2 47 ab 3d 6e 86 cd bd
       -0.07750343 -0.0055763274 0.0836332 -0.10035406
000310 3d 8f d2 bd d0 b6 c9 3d 10 49 46 3d dc d4 0b 3e
       -0.10281227 0.09849322 0.04840952 0.13655418
000320 d9 45 f6 bb 7f e7 d8 bd 5d b7 f3 bd 80 93 31 3e
       -0.0075156507 -0.105910294 -0.11900208 0.17341423
000330 92 95 8f 3c a9 0c 5f bd ac ac 73 39 a3 1c 05 3d
       0.017527375 -0.054455433 0.00023238611 0.032498013
000340 df 08 42 3e ca dc c4 3d 04 2e 1f 3d 19 7b a5 ba
       0.18948697 0.09612425 0.038862243 -0.0012625187
000350 1e ef 03 bd 9a 2d bd bd 17 6e 98 bc 2e e2 f2 3d
       -0.03221046 -0.092372134 -0.018607182 0.118595466
000360 e8 4e fc bd 27 b3 a9 3d f7 34 08 3d 77 4b 3a 3e
       -0.12319738 0.08286124 0.033253636 0.1819285
000370 d2 97 68 3d 21 f5 69 3d 37 3d 5f 3c 8f 81 4c 3e
       0.056785412 0.05711854 0.013625435 0.19971298
000380 29 9c f9 bd 3c 66 96 bd aa f2 00 3e 4a c6 12 be
       -0.12187988 -0.073437184 0.12592569 -0.14333454
000390 01 ab a6 3d 93 24 6c 3a 31 58 e8 bd b9 e9 ef bd
       0.08138085 0.00090081355 -0.11344946 -0.11714501
0003a0 e6 fd 83 bd 58 2c f2 bb b8 81 46 3d 16 f9 10 3e
       -0.06444912 -0.00739054 0.048463553 0.14157519
0003b0 2b 49 aa 3c 33 bb 77 bd 6c 13 d2 bd eb e7 b4 bd
       0.020786842 -0.06048126 -0.10257611 -0.08833297
0003c0 a4 0c 36 be 27 39 16 3e 1e 34 4e bd 47 2c ed 3d
       -0.1777826 0.1467024 -0.05034267 0.11580711
0003d0 65 ac 4e 3d 8c be 34 3d 30 fb 9e bb 41 8b b1 3d
       0.050457377 0.044127032 -0.004851721 0.08669139
0003e0 08 a3 e5 3c 26 e7 8a bb b0 45 a3 3d 62 14 b3 3d
       0.02803184 -0.004238981 0.07972276 0.08744122
0003f0 c6 32 c3 3d 2d 0d ca 3d 13 99 a5 3d fd cd 90 bd
       0.09531169 0.09865794 0.08085837 -0.07070539

lstm.weight_hh_l0 f4 [128, 32]
000000 95 c9 1d 3d 29 d9 27 3e 9a e4 95 bd 9d 12 18 bc
       0.03852232 0.16391434 -0.07318993 -0.0092817815
000010 36 9c 48 be 89 33 42 3d d7 78 9c bd c8 50 16 3e
       -0.1959084 0.04741243 -0.07640236 0.14679253
000020 17 86 21 be 29 c0 b4 bd 74 46 e3 3c 3e 4f b9 3d
       -0.15773807 -0.08825714 0.027743556 0.090483174
000030 08 1e 8c 3d e0 e5 df bc f1 67 24 3e e4 81 0f be
       0.068416655 -0.027331293 0.16055275 -0.14014393
000040 de 95 63 3c d0 0a 22 bc 45 9c 04 be 80 13 ec bd
       0.013890712 -0.009890273 -0.12950237 -0.11527157
000050 c4 1c 2f 3c f8 91 25 be 06 86 37 be 72 65 85 3d
       0.010688011 -0.16168964 -0.1792222 0.0651349
000060 3f 2b 36 3e a8 54 ab 3d 10 6e 7d 3c ed 53 2f 3d
       0.17789935 0.08365756 0.0154681355 0.042804647
000070 0f 0c 07 3b 99 d4 4c 3d 8e 69 04 bd 52 c6 f2 bd
       0.0020606553 0.050007436 -0.032327227 -0.11854233
000080 d4 5b b2 bd 96 56 64 bd ea c8 a2 bc 15 79 9f bd
       -0.08708921 -0.055746637 -0.019871194 -0.077867664
000090 0f 59 cf 3a f8 73 0d be 55 46 1d 3e 70 c0 32 be
       0.0015819388 -0.1381377 0.15358861 -0.17456222
0000a0 4c de b0 bc 6e ce 2f be c1 c6 c2 bd 01 11 cd 3d
       -0.021590374 -0.1716859 -0.095105655 0.10013009
0000b0 54 62 9f 3d bd 0c bc 3d dd 28 ca 3b da bb c0 3d
       0.077824265 0.09182117 0.006169422 0.0941083
0000c0 ac 59 82 3d ac c7 96 bc d9 95 4f 3c 57 b2 02 3e
       0.0636476 -0.018405758 0.012670004 0.12763344
0000d0 85 6d 02 bd 1a 85 8a bc 17 89 4a 3d 5c 0a f4 bd
       -0.031842727 -0.01690917 0.049447145 -0.119160384
0000e0 6c 13 10 be 3b ce 3a 3e b2 d1 97 3d de 9a 03 be
       -0.14069909 0.18242733 0.07413043 -0.12852046
0000f0 fe 57 a2 3d ba 09 e9 3d 98 0b db 3d 26 00 02 3e
       0.079269394 0.11378808 0.10695571 0.12695369
000100 e8 dd a0 3d 88 74 c9 bd 90 19 69 3d ba 18 d0 3b
       0.07854825 -0.0983668 0.056909144 0.006350604
000110 27 08 0b 3e ff 4d 76 bd 7d cd 10 3e fd 18 22 be
       0.13577329 -0.060132977 0.14140888 -0.15829845
000120 5c a4 3e 3a f1 3f 0a bd 35 a2 01 be c9 56 82 3d
       0.0007272416 -0.033752386 -0.12659533 0.06364209
000130 73 5f b5 bc 91 3b f8 bd 49 5a ea bd 0a 7f 4c bd
       -0.02214024 -0.121207364 -0.11443002 -0.04992584
000140 3a 26 c1 bd 53 f1 b8 bd a2 b0 3b bc f9 d1 b5 3d
       -0.09431119 -0.09030404 -0.011455687 0.0887794
000150 6b 83 24 3d f8 c9 fb 3d 53 a4 88 3d 05 27 25 be
       0.040164392 0.12294382 0.06671967 -0.16128166
000160 39 4a 19 3e f1 5c d0 bd d2 a6 9b 3d 46 34 b3 3d
       0.1496972 -0.10173977 0.07600178 0.08750205
000170 c9 84 07 be 85 d5 c7 3c 23 14 34 bd 13 ee 97 3d
       -0.13234247 0.024393806 -0.043964516 0.07418456
000180 b3 90 41 bd 0c 63 59 be 3e 96 d3 bd 55 ff 09 be
       -0.047257137 -0.2122919 -0.10331391 -0.13476308
000190 ce 07 e5 3d 8b 4a 0f 3e e6 5a 14 3e 42 d4 b6 3d
       0.11183129 0.1399328 0.144878 0.08927204
0001a0 56 2b b2 3d 5a 7e 93 3b 43 0b ba 3d 10 7a 42 bd
       0.08699672 0.0045011463 0.09084179 -0.04747969
0001b0 ad 97 64 3e 72 47 13 3e 8d 96 12 bd ad 60 cd 3d
       0.22323485 0.14382723 -0.035788108 0.10028205
0001c0 0f a8 f9 3a 4c 81 99 bd 2c 0f c1 bd f5 d2 0a 3d
       0.0019047278 -0.074953645 -0.09426722 0.03389259
0001d0 06 d4 e9 3d 7a 04 08 3d 1b 2a 42 3e 3b d0 2f be
       0.114173934 0.033207394 0.18961374 -0.17169277
0001e0 1b 4c 37 be f3 a7 4e 3e 19 21 b0 bc e7 80 c1 bd
       -0.17900126 0.20181255 -0.021500157 -0.09448414
0001f0 c8 49 a4 3c 08 e7 97 bd e2 c9 03 be 96 8b 1e 3d
       0.020054713 -0.074171126 -0.12869981 0.03870734
000200 8f f6 17 be 52 b2 84 3d de df 37 be 0d b0 09 3e
       -0.14840148 0.064793244 -0.17956492 0.13446064
000210 5d ac 43 bd 32 ce 04 3d 9e ad 29 3c ae 99 d4 3d
       -0.0477718 0.032423206 0.010356335 0.103808746
000220 bd f0 fa 3d b3 5d ff bd 74 3f f4 bd 90 32 5a 3d
       0.122529484 -0.124690436 -0.11926165 0.053270876
000230 d7 5c 03 bd 94 23 1e 3e 14 b0 0c bd ac af 4b bb
       -0.03207096 0.1544326 -0.03434761 -0.003108005
000240 ed 35 bf 3d f8 3e 58 3d 75 32 8d bd 5b c4 93 bd
       0.093364574 0.052794427 -0.068943895 -0.07215186
000250 03 80 37 bd 08 76 38 be fe 36 d6 bb e4 3c 0e be
       -0.044799816 -0.18013775 -0.0065373173 -0.13890415
000260 e2 e2 cb bd d5 cb d9 bd 57 6f 15 be 4c ca 4e be
       -0.09955384 -0.10634581 -0.14593254 -0.20194358
000270 89 7f f1 bd c0 ce 00 3d 08 91 94 bd 16 d8 b7 bd
       -0.117919035 0.031447172 -0.07254225 -0.08976762
000280 ba f7 2c be 0b fd 1c 3e 31 72 b0 bd 70 1b ae 3d
       -0.16891375 0.15330903 -0.0861553 0.08501327
000290 fb 28 c1 3d 99 a7 68 3d 38 71 0c be 2a c1 10 3d
       0.094316445 0.05680046 -0.13715065 0.035340466
0002a0 ce fc f2 3d ce 57 1a 3b 5f 85 0e bd 1f 1f 0b bd
       0.11864625 0.002355087 -0.03479516 -0.033965226
0002b0 39 b3 06 3e dc 41 4e 3e 6a 0f 3f 3d 01 15 b2 3d
       0.13154306 0.20142311 0.04664556 0.086954124
0002c0 15 ed c5 3c 86 11 70 3d 7f 60 ef bd bb 96 4f 3d
       0.024160901 0.05861046 -0.11688327 0.050680857
0002d0 9c 19 1c 3e f6 1a a9 3d 93 f4 25 be 4c ad d6 3d
       0.15244144 0.082570955 -0.16206579 0.104822725
0002e0 b8 ce e3 b8 54 91 d7 bd 72 51 fb bd ed f5 02 3e
       -0.00010862708 -0.10525766 -0.12271394 0.12789126
0002f0 26 5a c3 bc 60 59 08 bd 19 c8 9c 3d cd 76 02 3d
       -0.023846697 -0.03328836 0.07655353 0.03185158
000300 a1 9e fc 3d f4 2d 9f 3d a2 e7 08 be 4b 47 e5 bb
       0.123349436 0.07772437 -0.13369611 -0.006997024
000310 4f 34 41 3e 2f 7f f7 3d 64 71 e0 3d ec d5 a4 bc
       0.1886761 0.12084805 0.109591275 -0.020121537
000320 85 07 10 bd f1 51 8d bd da ae 33 bd 80 85 d3 3d
       -0.03516342 -0.06900395 -0.043867923 0.103281975
000330 23 81 6c 3e 19 f0 10 3d ad 97 c6 bd 2d 2e 6b bc
       0.23096137 0.035385225 -0.096968986 -0.014354271
000340 a3 f7 d8 bc 4e 5c 78 bd 4e e9 2e 3c 23 7b 0d be
       -0.02648527 -0.060634904 0.010675741 -0.13816504
000350 60 cb 01 3e 4e 68 2c 3e 78 28 9b 3c 61 57 c0 3d
       0.12675238 0.16836664 0.018940195 0.09391666
000360 52 76 af 3d 5f a5 ef 3b c0 4f b2 3d ae cf d7 bd
       0.0856749 0.007313415 0.08706617 -0.10537659
000370 bc 3b 37 be 3d 0a 97 3c 98 bb 7c bd 89 5c d5 bd
       -0.1789388 0.0184375 -0.06170234 -0.1041804
000380 6a c6 91 3d f7 a2 f9 3d b0 a9 a3 3d 85 7e 34 3d
       0.071179226 0.12189286 0.0799135 0.04406597
000390 0c 78 20 3e 45 37 40 be ee eb 82 3b 84 c3 b5 bc
       0.15670794 -0.18771084 0.00399541 -0.022187956
0003a0 22 a7 5f bd 07 0c b4 bb c5 8b cb bd a6 c4 dc bd
       -0.05460275 -0.005494598 -0.09938768 -0.10779695
0003b0 dc 43 61 3e 16 44 db 3d 7d 51 1f bd 1b b7 73 bc
       0.21998543 0.10706346 -0.038896073 -0.014875199
0003c0 10 94 96 bd 1f b8 f5 bb 00 89 81 3d 31 7f 21 be
       -0.073524594 -0.0074987556 0.06324959 -0.15771176
0003d0 bf 7f d8 bd 6c bd 22 be 37 27 4a 3e d6 ff 07 be
       -0.10571241 -0.15892571 0.19741522 -0.13281187
0003e0 50 4c 56 bd 93 f4 0d 3d 48 cb d1 bc 85 5a 2b be
       -0.05231887 0.034657072 -0.025609627 -0.16733749
0003f0 52 27 46 be 15 b1 2c be 05 a3 17 bd 24 43 38 3d
       -0.19350937 -0.16864426 -0.037020702 0.044985905

lstm.bias_ih_l0 f4 [128]
000000 e0 3a e5 3d ba ee 7c bd a7 f9 63 bd 2b 77 82 bd
       0.1119287 -0.061751105 -0.05565801 -0.06370386
000010 53 33 7a 3b f3 21 a1 3c b2 28 0e 3e 28 98 16 3e
       0.0038177564 0.019669509 0.13882712 0.1470648
000020 6a a5 20 bc 32 9f 48 3e f6 7c 06 be 21 73 a9 3d
       -0.009805063 0.19591978 -0.13133606 0.08273912
000030 ad 3a 32 3e c2 66 97 bd ea 9b 22 bc 4c 26 22 3e
       0.17405196 -0.07392646 -0.009924868 0.15834922
000040 a1 c5 10 3e 58 f1 51 3d 21 a0 fe bd b9 f2 61 3d
       0.1413789 0.051255554 -0.12432886 0.05516312
000050 e7 b8 00 3e f3 c1 fa 3d 34 0e 9b bd d1 d3 2e 3e
       0.12570535 0.12244024 -0.075710684 0.17072989
000060 5e 38 26 3e ed 8f 27 3e 4e 73 1d 3e 75 46 1f 3e
       0.1623244 0.16363497 0.15376016 0.15554221
000070 9f 34 f0 bd d6 55 da bd a4 0f 07 3c 28 23 8a 3c
       -0.11728787 -0.10660903 0.008243475 0.016862467
000080 38 b1 91 3c 6a d7 d4 bd 05 a5 24 3e b7 32 b2 bd
       0.0177847 -0.103926495 0.16078575 -0.08701079
000090 8c 6d 0a be b0 ea 27 3e 5a 6f ef bc 47 f0 98 3d
       -0.13518351 0.1639812 -0.029227901 0.07467704
0000a0 07 89 ed 3d 74 e9 95 3d 2c d8 df 3d 57 a1 17 be
       0.115984015 0.07319918 0.109299034 -0.1480764
0000b0 09 22 0c 3e 13 f4 d9 3d 3d 15 38 3e 05 aa 46 3c
       0.13684858 0.106422566 0.17976852 0.012125497
0000c0 41 b0 fe 3d dc d5 b5 3c d5 1c 12 bc fc e8 2e be
       0.124359615 0.022196703 -0.008918007 -0.17081064
0000d0 89 73 78 3c ea c8 f5 bc 0b 90 ee bc 56 71 dd 3d
       0.0151642645 -0.03000303 -0.02912142 0.10812633
0000e0 c6 d0 f1 3c 90 5b d8 3d 34 d4 4b bd d0 78 fd bd
       0.029518496 0.10564339 -0.04976292 -0.12376559
0000f0 28 82 27 3b 87 00 cb bd 02 bc 37 3e ff a2 0c 3e
       0.0025559757 -0.0991221 0.17942813 0.13734053
000100 7a 4d c0 3d 70 64 6f bd 6a 85 54 be bb 41 82 3c
       0.093897775 -0.058445394 -0.20754018 0.015900483
000110 33 0f 40 3d 00 e4 b5 bd 3b 4f 28 3e e8 00 21 3d
       0.046889495 -0.08881378 0.16436474 0.039307505
000120 fe 5e 3c 3d b4 c4 9a 3d be f3 d8 3d 39 32 33 bd
       0.04598903 0.075570494 0.10593365 -0.043749068
000130 87 ee 75 bc 66 d8 a1 3d cd fb 70 3c 47 5d 5f 3d
       -0.015010483 0.07902603 0.0147084715 0.054532316
000140 1a 94 3b 3d 88 0d 06 3d f8 a8 45 3d 17 a7 01 bd
       0.045795538 0.03272775 0.048256844 -0.03165349
000150 bb 51 8d bd ef 62 22 be f9 89 36 3e 2d 58 0d be
       -0.069003545 -0.15858053 0.1782607 -0.13803168
000160 88 41 de 3d 43 18 0f 3e 4f ab 47 be 72 e6 e6 3c
       0.10852343 0.13974099 -0.19498943 0.028186057
000170 70 af 24 3d 02 49 64 3c e6 39 dd bd 87 db 0b 3c
       0.040206373 0.013933422 -0.10802059 0.008536226
000180 bf 78 a9 bd cb 52 02 3e f0 0b bf 3d a7 28 af 3d
       -0.082749836 0.12726896 0.09328449 0.08552676
000190 b8 d0 02 3e ba 89 ce bd 6a 19 fb 3d ef 99 be bd
       0.12774932 -0.10084863 0.12260707 -0.09306704
0001a0 2d 03 bc 3d 43 5e f8 3d 50 fe 9d 3c 1b 95 47 bc
       0.09180293 0.12127354 0.019286305 -0.012181546
0001b0 15 30 c4 bc 85 34 1e be 48 28 0f 3d 81 c3 de 3d
       -0.023948709 -0.15449722 0.034950525 0.10877133
0001c0 d6 f4 db 3c 83 15 d0 bd c2 c3 39 bd 73 f6 4e bd
       0.026850145 -0.10160353 -0.045352705 -0.050528
0001d0 7a 02 e8 bd 77 a1 c0 bc ea f0 ac bd 4d 4b 02 be
       -0.11328597 -0.023514492 -0.08444388 -0.12724037
0001e0 34 a7 14 3e 91 c7 0c be 61 a3 e1 3d b8 b1 23 3d
       0.14516908 -0.13748004 0.1101749 0.039964408
0001f0 80 b9 39 3e 57 fd 56 3d 38 ce 40 3e 5b b6 2a 3e
       0.18137169 0.052487697 0.18828666 0.16671126

lstm.bias_hh_l0 f4 [128]
000000 2a 04 cb 3c 38 0e e7 3d 35 08 18 be 98 77 94 bd
       0.024782259 0.11282009 -0.1484688 -0.07249373
000010 98 90 db 3c 34 6c e7 3d 19 7f 09 be 0a 28 02 3e
       0.026802346 0.11299935 -0.1342739 0.12710586
000020 54 92 41 bd 9e 0f 37 3e 26 6c 50 3d 43 f2 14 be
       -0.04725869 0.17877051 0.05088439 -0.1454554
000030 0b 45 e5 bd 66 b5 d9 3d 20 95 72 bc 79 35 41 bd
       -0.111948095 0.10630302 -0.014806062 -0.047170136
000040 c0 bf 71 bd f5 9d 98 ba 8d 3c 45 bd 85 14 32 bd
       -0.059020758 -0.0011643755 -0.04815345 -0.0434766
000050 0c 53 39 be bc 7e 19 3e f0 e5 fe 3d d7 9a ab bd
       -0.18098086 0.14989752 0.12446201 -0.08379143
000060 b8 ac cf 3b 52 59 93 bd 7e bc e4 bc 8d 72 35 3e
       0.0063377284 -0.07194771 -0.027921911 0.17719479
000070 09 51 6f 3b 7e 3d 75 3d 51 f9 a2 bc 6a f0 11 3e
       0.0036516807 0.059873097 -0.019894274 0.14251867
000080 46 69 8d 3c 1f 45 f2 bd 8b 16 1c 3e ca 02 1b 3e
       0.017262112 -0.1182959 0.15242974 0.15137783
000090 10 c5 4e 3e 47 35 75 3b 80 95 8e bd a1 e0 fa bc
       0.20192361 0.003741579 -0.069621086 -0.03062469
0000a0 70 8a ab bd f9 69 c4 bd 3e c6 23 3e d3 ac 35 3d
       -0.08376014 -0.09590525 0.15993592 0.04435427
0000b0 85 ec 3b 3e d0 1a 1b 3e 31 e4 40 3e e7 5b e6 bd
       0.18351944 0.15146947 0.18837048 -0.11247998
0000c0 e4 b4 15 be e9 af 39 be 0d 07 62 bb 12 7c 08 3d
       -0.14619786 -0.1813351 -0.0034489066 0.033321448
0000d0 8b 13 dc 3c 9d 8d 37 bd 39 d4 65 bb e2 0f a6 bd
       0.026864788 -0.044812787 -0.0035069122 -0.08108498
0000e0 b2 7b 02 be 2a 34 19 3d 23 b5 e6 bd c9 f3 12 3e
       -0.12742499 0.037403263 -0.11265018 0.14350809
0000f0 bf 28 44 3d 70 a8 f6 3d 5d 86 b2 3d 50 f7 fb 3d
       0.04789042 0.12043846 0.08717034 0.123030305
000100 bb b9 5d bd 2e 22 7a bd 41 19 0e 3d 1b a5 73 3d
       -0.054132205 -0.061067753 0.034692053 0.05948363
000110 7b 82 64 3d ec 17 d5 bd b5 0a 29 3d 42 00 f6 3d
       0.0557885 -0.10404953 0.041269977 0.12011768
000120 67 8a 00 3e 46 df d5 3b 06 af ef 3d 27 6e 59 3d
       0.12552796 0.0065268604 0.11703305 0.053083565
000130 e4 11 80 3d 3e 72 ee bd b2 7e 06 3e bb 49 42 bd
       0.06253412 -0.11642884 0.13134268 -0.047433596
000140 dd 41 d1 bd f6 d8 28 3e 24 5f 34 3e 73 22 18 be
       -0.102176405 0.16489014 0.17614418 -0.14856891
000150 ea ee 8e 3c 59 3e 53 bd 55 0d e9 3b 4a 66 fb bd
       0.017447907 -0.05157313 0.007112185 -0.122753695
000160 16 89 6b 3d 8c da 0b be e9 a7 a2 3c 3a 6f 3a be
       0.057503782 -0.13657588 0.019855456 -0.18206492
000170 8e 5f ba bd d0 b0 e1 bd 3e fb a7 3d c1 75 92 3d
       -0.09100257 -0.110200524 0.082022175 0.07151366
000180 fc 18 1d bd 47 3b fd bd 4c 43 96 bd f9 9f 97 3d
       -0.038353905 -0.12364822 -0.073370546 0.07403559
000190 a8 d5 3e 3d 64 53 65 3d ac 6b 12 3d 43 f7 05 be
       0.046590477 0.05598773 0.035747215 -0.13082604
0001a0 1a 93 d9 3c 71 74 0c bd 4f 20 af bd af 52 8e 3d
       0.026559401 -0.034290735 -0.08551084 0.069493644
0001b0 45 55 1d bd ba 4e e9 3d 83 b5 0e be 2e 3c 2f 3c
       -0.038411397 0.11391969 -0.13936429 0.0106955
0001c0 7d 4e 3a 3e 74 a6 a9 bd 77 7d d7 bc 32 9b 32 be
       0.18194003 -0.082837015 -0.026304943 -0.17442015
0001d0 f5 31 80 3c ae 0c 0f 3e 8c 4f c1 3d 01 83 0e be
       0.015648821 0.1396968 0.094390005 -0.13917162
0001e0 1c b9 2f 3b d8 03 12 3d e5 91 d4 ba 22 40 15 bd
       0.0026813215 0.035648197 -0.0016217796 -0.036438115
0001f0 76 57 2a 3e a7 e8 0d 3e cc 06 04 be eb 8e 23 3e
       0.16634926 0.13858281 -0.12893218 0.15972488

lstm.weight_ih_l1 f4 [128, 32]
000000 c2 96 c9 3d d1 7a 15 bd 2b fd 07 3e 80 00 4f 3e
       0.09843208 -0.03649408 0.1328017 0.20215034
000010 21 e6 41 3e 7a a8 a5 bd 16 0e 35 3d c5 b4 35 bc
       0.18935443 -0.08088775 0.044202887 -0.011090462
000020 cf 32 2c bd 51 cb af 3c 0d 7f f5 bc 33 2c b9 bd
       -0.042040642 0.021459254 -0.02996781 -0.090416335
000030 06 fa 50 3d 25 6f 14 3e 3d c0 08 3e 4b 86 41 3e
       0.05101969 0.14495523 0.13354583 0.18898885
000040 d8 d4 2f bc 1c fc 48 3d eb 7c e8 3d 3e e6 b9 bd
       -0.010731898 0.049068555 0.11351951 -0.09077118
000050 7f 2c ee bd c9 c4 0b 3d 01 20 a0 3c 7d 99 2a bc
       -0.11629581 0.034123216 0.01954651 -0.010412571
000060 cb 13 d2 bd b1 52 2c 3e c7 86 d4 3d a9 4a 24 be
       -0.102576815 0.1682842 0.10377269 -0.16044106
000070 4a 7b cc bd 60 8c f7 3d 73 10 0f be 3f 31 46 be
       -0.09984453 0.12087321 -0.13971119 -0.19354723
000080 f2 03 23 3e e9 2d 05 3e bc b4 05 3e ac d7 22 3e
       0.15919474 0.13005795 0.13057226 0.15902585
000090 48 09 a9 bd b4 ff 83 3d cb 41 87 bd 5e 05 bc 3d
       -0.082537234 0.06445256 -0.06604346 0.09180711
0000a0 15 14 c5 bd 45 c8 a4 bb 79 a6 40 bb 85 25 86 3c
       -0.09622971 -0.005028757 -0.00293961 0.016375313
0000b0 2d 4f 2f 3e 44 9c 51 3d 1b 89 f2 3d 12 d5 ce bd
       0.17120047 0.051174417 0.11842557 -0.10099234
0000c0 76 77 af 3a 5b bc 28 be bb e7 90 bd da 38 2f be
       0.0013387043 -0.16478102 -0.07075449 -0.17111531
0000d0 4e fa a3 bd 65 00 b3 bd b1 4e 36 3e 76 e9 83 bd
       -0.08006726 -0.087403096 0.17803456 -0.064410135
0000e0 83 97 b0 bd 71 24 8c 3d ee 22 3d 3d c6 58 52 bd
       -0.086226486 0.06842888 0.04617589 -0.051354192
0000f0 9b 64 ff 3d 34 3b de 3d e8 03 99 3d b0 c8 31 be
       0.12470361 0.10851136 0.07471448 -0.17361712
000100 89 fd 5e bc ed 9e 28 3d a8 cd 1d 3e c7 63 31 3e
       -0.013610252 0.04116719 0.15410483 0.17323218
000110 a5 64 2a 3d d6 38 c1 bd 83 5b 35 3e 23 43 0a 3e
       0.04159989 -0.09434669 0.1771069 0.13502173
000120 bb 71 92 bd fd 6b be bd e5 20 42 3e 68 a2 ed 3c
       -0.071505986 -0.09297941 0.18957861 0.029008105
000130 4f 5a e5 bc 93 98 09 3e 96 23 02 3e c4 4e 4a 3e
       -0.027997164 0.13437109 0.12708887 0.19756609
000140 e0 ca b7 bd 00 ee c1 bd 7d 2c 84 bd 70 47 46 be
       -0.08974242 -0.09469223 -0.06453798 -0.19363189
000150 af 00 55 3d 75 3e 0f bd dd 93 d7 bd 77 de 4f 3c
       0.052002605 -0.034971673 -0.105262496 0.012687317
000160 66 18 75 3d 2d 62 a8 3b 43 12 a9 3d 46 ee d7 bd
       0.05983772 0.0051386566 0.08255436 -0.10543494
000170 e4 3d e6 3d 05 d4 07 be c6 60 4c bd bf 43 fa bd
       0.112422734 -0.13264473 -0.049896978 -0.12219953
000180 3c ab d1 3c 50 1f 60 bd ab 35 03 3e fb f5 91 bc
       0.025594346 -0.054717362 0.12813441 -0.017817488
000190 c5 b2 01 3e 16 10 07 be 60 96 e3 3d 8e 3c 88 bd
       0.12665851 -0.1318973 0.11112666 -0.06652175
0001a0 c0 0d 45 3e 12 4c de 3c 3f 9c 41 3d bf 70 9b bd
       0.19243526 0.027135883 0.04726815 -0.07589864
0001b0 db 51 c2 bd 18 44 f7 3d 49 f1 0a 3d dd 34 8b bc
       -0.09488269 0.12073535 0.033921514 -0.01699298
0001c0 43 75 15 be 71 a1 df bd bc 7b f3 bd 5a 05 53 3d
       -0.14595513 -0.109194644 -0.11888835 0.051518776
0001d0 f9 30 e3 3d ae 1d 69 bd dc c2 a0 bd 86 4d 5a be
       0.11093325 -0.05691307 -0.078496665 -0.21318635
0001e0 0d ae d6 bd 46 31 45 3e df 70 27 bd 36 90 02 3e
       -0.10482416 0.19257078 -0.040879127 0.12750325
0001f0 f7 4c 95 3d bd cd 0d be 6d cb c0 3d 0f ba e7 bd
       0.072900705 -0.13848014 0.094138004 -0.11314785
000200 16 78 98 bd 6c db 31 3e 18 32 22 be ab 22 32 bd
       -0.074447796 0.17368859 -0.15839422 -0.043490093
000210 27 ed 21 3e 05 be 23 3d 06 39 41 be 6c b2 c3 bb
       0.15813123 0.03997614 -0.18869409 -0.0059721973
000220 3e 61 35 3c 21 a0 e2 bd ff 79 81 bd 07 b7 69 bc
       0.011070548 -0.110656984 -0.06322097 -0.0142648285
000230 2f 57 d8 3d c9 70 18 3e b8 e3 92 bd f8 9e 11 be
       0.10563504 0.14886774 -0.0717234 -0.14220798
000240 f1 70 28 3d ea d6 c9 bb d2 14 18 3d ba 13 03 3e
       0.041123334 -0.006159653 0.03712923 0.12800494
000250 09 33 8c 3a 71 8c 10 3d 7e 51 b4 bd 19 24 14 be
       0.0010696362 0.035290185 -0.08804606 -0.14466895
000260 8b 66 12 be 24 d3 5c bd 19 ae 8f bd 31 bf 21 be
       -0.1429693 -0.053912297 -0.07015628 -0.1579559
000270 02 72 da 3d 92 4b 63 3b f5 5e e8 bd 96 0f 1d be
       0.106662765 0.0034682495 -0.113462366 -0.15337977
000280 ef 64 03 be 4e 4d fd 39 fd 77 a4 3d 78 54 1b bd
       -0.12831472 0.00048313517 0.080306984 -0.037922353
000290 37 fc 12 3d ed 3a 18 3d 6b 86 e0 bb f4 b4 0f bb
       0.035885062 0.03716557 -0.0068519614 -0.0021927925
0002a0 4c 31 16 be 28 93 a4 bd a5 9a ab bd 32 15 1f be
       -0.14667243 -0.0803588 -0.083791055 -0.15535429
0002b0 b5 c0 ac 3c 98 f5 ec 3d 54 cf 2a bd cb 29 bb 3d
       0.021087984 0.11570281 -0.04170163 0.09138831
0002c0 a0 27 04 be 51 50 2a be 90 91 16 bc 8f c9 5f bc
       -0.1290574 -0.16632201 -0.009189978 -0.013658895
0002d0 38 f6 93 bd 5e 2a 2b 3e 5d 35 72 3b a1 3f 85 bd
       -0.07224697 0.1671538 0.0036958077 -0.06506277
0002e0 db 95 32 be 83 13 97 bd a3 54 cb 3c fd 20 f3 3d
       -0.17439978 -0.073767684 0.024820631 0.118715264
0002f0 e3 e6 19 3e 8f 24 0b 3d ca 07 b9 bc 14 b7 cd 3d
       0.15029483 0.033970412 -0.022586722 0.10044685
000300 29 27 dd 3d 71 ac ad 3d 11 a7 32 bd 94 89 0b be
       0.10798485 0.08480156 -0.04361636 -0.136267
000310 4e b1 b7 3d cb b2 98 3d 26 6b 52 bd 52 93 39 3e
       0.08969365 0.07455977 -0.051371716 0.18122604
000320 6d 60 66 3d 13 d1 4e 3e c2 f1 95 3d d9 08 03 bd
       0.056244303 0.20196943 0.07321502 -0.03199086
000330 00 91 e3 bd 91 48 dc 3d 53 04 01 be 73 9b 8b 3d
       -0.11111641 0.107560284 -0.12599306 0.06816759
000340 31 bd ed bd f7 5a aa 3d 63 fc 03 bd 85 9d 74 3d
       -0.11608351 0.083181314 -0.032223117 0.059720535
000350 be c4 e8 bd 5c 93 46 be cb 8b 2b 3e ff 52 a8 3d
       -0.113656506 -0.1939215 0.16752546 0.08218955
000360 c7 2f 16 3e 56 24 fd 3d e5 b6 90 3d b9 b9 6d 3d
       0.14666663 0.12360446 0.07066134 0.058038447
000370 3c fc bf bd 28 0e 4d 3c c2 24 14 3e 01 d7 9a bc
       -0.09374282 0.012515582 0.14467147 -0.01890135
000380 27 34 3c bd 5c e2 0c ba 1c 28 45 3d ae 56 13 3e
       -0.045948174 -0.00053743063 0.048133954 0.14388534
000390 09 49 27 3d 2d f4 20 3e bb 22 8b bd ac 0c fe bd
       0.040841136 0.15718146 -0.06793734 -0.12404761
0003a0 b9 91 27 3e 54 4d 33 be 20 be f9 3b ea 1d 84 3d
       0.16364183 -0.17509967 0.0076215416 0.06451018
0003b0 1d 8c 13 3e 8e af ca bd ba 23 a6 3c bb cb 28 be
       0.14408918 -0.09896766 0.020280708 -0.16483967
0003c0 8b c0 7b 3c 63 1e eb 3c c1 d0 d5 ba b1 da 07 be
       0.01536573 0.028701013 -0.0016312824 -0.13267018
0003d0 2d 91 66 3d 29 ec 2f bc 5a 9a 31 be d6 9d 18 be
       0.056290794 -0.010737457 -0.17344037 -0.1490396
0003e0 70 d4 a1 3d a5 fa 82 3d 07 a5 f5 3d a0 ac 8e 3d
       0.07901847 0.06395463 0.11994367 0.06966519
0003f0 76 ef 8f bc a1 c5 90 bd 62 b5 52 3d fa ce e8 3d
       -0.017570239 -0.07068945 0.05144251 0.11367603

lstm.weight_hh_l1 f4 [128, 32]
000000 06 8f 32 bd e6 83 81 bd 5c 29 1b 3d 6f 30 00 3e
       -0.04359343 -0.06323986 0.03788124 0.12518476
000010 25 5e d1 bb 32 f0 21 3e 31 d7 06 be 96 c3 fa bd
       -0.0063893967 0.15814283 -0.13168027 -0.12244336
000020 e2 86 31 3e 0e 95 18 3e 01 35 38 be 4b 26 dc bd
       0.1733661 0.1490061 -0.1798897 -0.10749491
000030 9a 6b 4d be aa 38 d9 bd 74 e2 63 3d c6 c4 c9 bc
       -0.20060578 -0.10606511 0.055635884 -0.024629962
000040 21 15 11 bd a4 6a 02 3e c3 c8 b2 3d cc 40 a4 bc
       -0.03542054 0.12735993 0.087296985 -0.020050429
000050 5f 00 50 3e dc b9 37 3e 1a 0f b8 3d f2 9c 23 3c
       0.20312642 0.17941993 0.089872554 0.009986149
000060 d9 da 24 bd cf d9 aa bd 21 fe ee bd d2 2b 59 3d
       -0.040247772 -0.08342325 -0.11669565 0.053020306
000070 e6 3e 8d 3d b5 b0 05 3e dc 09 2d 3e 7d cb 12 be
       0.068967625 0.1305569 0.16898292 -0.14335437
000080 68 e5 e8 bd 37 04 a7 3a d2 e9 58 bd 09 27 c2 bd
       -0.11371881 0.0012742345 -0.052957363 -0.094801016
000090 7d 37 c2 3d 4d 79 ee 3c e3 a2 d7 bd e1 4f 1a bd
       0.0948324 0.029110575 -0.10529115 -0.037673835
0000a0 e2 6f 76 3d 02 47 ba bd 9a d1 a4 3d 5a b3 ab 3d
       0.060165294 -0.09095575 0.08047791 0.08383818
0000b0 a0 ec 14 3e 25 e3 06 be b5 03 0c 3e c0 db 4e 3d
       0.1454339 -0.13172586 0.13673289 0.05050254
0000c0 45 fa 14 bd 8c 53 82 bc b7 ef ed 3d f4 f4 9f 3d
       -0.036371488 -0.015908979 0.116179876 0.07810393
0000d0 e2 7f 18 be c5 b1 28 be 11 50 a3 bd f0 8d 2b 3e
       -0.14892533 -0.16474064 -0.07974256 0.16753364
0000e0 30 76 b6 bd 52 80 19 3e 38 1f 8d bd 52 61 14 3e
       -0.08909261 0.14990357 -0.0689072 0.1449025
0000f0 3e ad 3e be 98 80 b0 bd 6a e5 90 bd 44 53 0b b7
       -0.18620774 -0.08618277 -0.07075007 -8.304432e-06
000100 bc 50 38 3d 21 91 13 3d 12 4e 14 3e a9 f8 de bd
       0.04499887 0.036027078 0.14482906 -0.10887272
000110 4a 42 ce 3d 3a 93 fd bd f3 51 f3 bd f9 2b 00 3e
       0.100712374 -0.12381597 -0.11880865 0.12516774
000120 9e 8c 79 bd ff 6b 5c bd bd 79 70 3d 32 07 81 3b
       -0.06092512 -0.05381393 0.05870985 0.0039376253
000130 14 fa 0c 3e a0 b7 f3 3d aa f5 56 bd a9 86 ec bd
       0.13767272 0.11900258 -0.052480377 -0.11549122
000140 38 58 22 be fd 1a 1b be c0 41 ed bd da f8 cd 3d
       -0.15853965 -0.15147014 -0.115848064 0.1005723
000150 66 88 0b 3e 58 27 ea bd 82 52 03 3e b2 aa 20 3e
       0.1362625 -0.114332855 0.12824443 0.15690115
000160 94 5e 3a be 36 c4 16 bd 9b 7c 4e be 81 73 d5 bd
       -0.18200141 -0.036808215 -0.2016472 -0.10422421
000170 2a 3e 42 bd 80 30 27 be 5e db f0 3d 7e 11 2a 3e
       -0.047422566 -0.16327095 0.11760591 0.16608235
000180 c7 b8 e1 3d 3e 4d ee bd b2 dd 99 bc 46 00 b9 bd
       0.110215716 -0.116358265 -0.01878247 -0.09033255
000190 46 ce 17 be 78 91 06 be a1 93 44 bd d2 4e 17 be
       -0.14824781 -0.1314143 -0.047992352 -0.14776161
0001a0 e4 96 ef bd d1 6d 94 3d a3 48 d7 bb 85 80 40 3e
       -0.11698702 0.07247508 -0.0065699383 0.18799026
0001b0 ec cd 2f be 7d be 21 be 01 35 34 3e 91 47 04 bd
       -0.17168397 -0.15795322 0.17598344 -0.032294814
0001c0 1d df c9 3c 42 2e 20 3c 4d 02 f3 bd cb 42 2e 3d
       0.024642522 0.009776654 -0.11865673 0.042544167
0001d0 53 65 39 3d 75 ef 17 3e 14 64 fb 3d 3f ac 0a 3e
       0.045262646 0.1483744 0.12274948 0.13542269
0001e0 81 d1 23 bc a9 15 4b 3e 49 e7 33 3c d3 20 3e 3e
       -0.00999868 0.19832481 0.010980436 0.18567209
0001f0 d2 84 fb 3d a9 c1 15 be 9b ea aa bc d9 3d 63 bd
       0.12281193 -0.14624657 -0.020863822 -0.055478904
000200 06 d6 9b bd eb 9b d5 3d be 74 bb 3d 33 a8 16 3e
       -0.07609181 0.104301296 0.09153126 0.147126
000210 94 e3 9f bc 71 28 3d 3e 53 38 51 bd 1f d0 07 be
       -0.019517697 0.18472458 -0.051079106 -0.13262986
000220 03 47 18 3e 98 0d 94 bd 19 7a 05 3e 6c 4e 8a 3c
       0.14870839 -0.07229155 0.13034858 0.016883098
000230 df 51 c0 3c 5f d9 d0 3b d5 12 d1 3d 98 d2 f1 3d
       0.02347654 0.006373569 0.1020867 0.11807746
000240 10 2e 25 be 55 79 54 bd 19 c5 a6 bd 68 75 a7 3b
       -0.16130853 -0.051873524 -0.08143062 0.0051104315
000250 a9 2c 0c 3d 06 7e ae 3c 86 0d 63 3d c0 99 83 3d
       0.03422228 0.021300327 0.05543282 0.0642581
000260 89 ab 00 3e 91 e6 ce 3d f8 37 aa 3d f8 d6 4b be
       0.12565435 0.10102571 0.083114564 -0.19906223
000270 d5 10 d4 bd e5 d0 66 bd 60 06 16 be 6a 3f 07 be
       -0.10354773 -0.05635156 -0.1465087 -0.13207784
000280 c5 28 91 bd a3 0f f8 3d 38 cb ae 3c 61 1b 28 be
       -0.07087854 0.121123575 0.021337137 -0.16416694
000290 34 57 1f 3d 87 6f 20 3e 3c de 2c 3e e9 29 f6 bd
       0.038901523 0.15667544 0.1688165 -0.120197125
0002a0 16 20 75 bd f7 f8 d1 bd 25 19 1d 3d 62 fe 9c bd
       -0.059845053 -0.102525644 0.038354058 -0.07665707
0002b0 a6 ed 9d bd ae dc a4 bd 85 5b 93 bd e2 ba 13 bb
       -0.077113435 -0.08049904 -0.0719519 -0.002254181
0002c0 41 a5 9c bd 92 3d 41 bd 82 74 fb 3d 23 25 b0 3b
       -0.07648707 -0.04717786 0.122780815 0.005375521
0002d0 30 0a 01 3e 78 4b 99 bd 0b 70 59 3d e4 e6 f6 bd
       0.12601542 -0.07485098 0.053085368 -0.12055758
0002e0 ee 0f 0e bc cc f8 9b bd 91 d7 25 be 01 cf 36 3c
       -0.00867079 -0.076158136 -0.16195513 0.011157752
0002f0 81 08 f2 3d c7 01 a7 3d a2 f9 7a 3d 45 78 23 3e
       0.11818028 0.08154636 0.061273225 0.15963848
000300 a9 8c cf bd 2e d4 52 be bf 02 12 bd ab f3 ef bd
       -0.10134251 -0.20588753 -0.03564715 -0.11716398
000310 e1 a0 11 3e 60 35 47 bc 4d cf 47 be 99 0f f9 bd
       0.14221527 -0.012158722 -0.19512673 -0.12161178
000320 5c a2 15 3e e2 3e 05 be de f1 bc bd 0b 7c 30 3e
       0.14612716 -0.13012269 -0.0922582 0.17234819
000330 56 b4 c1 bd 5c d7 2d be fa 15 32 3e d8 d7 f0 bd
       -0.094582245 -0.16976684 0.17391196 -0.11759919
000340 bf d4 f7 3c 89 ad b4 3d d4 6a 67 3d a7 d2 b9 bc
       0.030252812 0.08822162 0.056498364 -0.022683455
000350 51 ed 0f bd ea a2 73 3c 9e c1 10 3e 9d fb 32 bd
       -0.035138432 0.014870385 0.14136359 -0.04369699
000360 ae 38 08 3d 00 15 c0 bc 93 b4 60 3d 12 0d 02 bd
       0.03325718 -0.023447514 0.05485971 -0.031750746
000370 6c f7 c6 bd 61 0c f2 bd bb 01 d7 bc 04 c2 0d 3e
       -0.09715161 -0.11818767 -0.026245942 0.13843542
000380 61 9c 21 be 2d fa 89 3d 95 3d 8d 3c 77 ef 8d 3b
       -0.1578231 0.0673717 0.017241279 0.004331525
000390 a2 67 25 3e fd 5d 0c 3e 03 1d be bc 8f bb b6 3d
       0.16152814 0.13707729 -0.023207193 0.08922493
0003a0 36 2c cc 3d 69 b1 47 be bb 1a d7 3d 84 7c 06 be
       0.0996937 -0.1950127 0.10503145 -0.13133436
0003b0 ec 2b 88 bd 48 18 25 3e e8 b7 8c bd e5 3d 0a bd
       -0.066490024 0.16122544 -0.06871015 -0.033750433
0003c0 8d 15 e5 bd 09 76 86 bd c7 2d 2e be f0 36 27 bd
       -0.11185751 -0.06565482 -0.1700965 -0.040823877
0003d0 3a c5 b5 3d 4e 4b 18 3c 18 a7 ba 3d d1 c1 3a be
       0.088755086 0.009295298 0.09113902 -0.18237998
0003e0 1d fc 2b be 2d 53 08 3e ba 22 1d bc 2b 64 70 3c
       -0.16795392 0.13312979 -0.009590799 0.014672319
0003f0 51 cf 0e be b5 9d 22 3e fe 0f d4 bd db f6 24 3e
       -0.13946272 0.15880473 -0.10354613 0.16109793

lstm.bias_ih_l1 f4 [128]
000000 03 ea cf 3d e7 ad a5 bd 29 7a a8 bd b7 82 72 bd
       0.10152056 -0.0808981 -0.08226425 -0.05920669
000010 1e 4a 2e bc 9e 76 90 3d dd fe e2 3d b5 9b d6 3c
       -0.010637788 0.070538744 0.110837676 0.026197294
000020 72 d8 4e 3d bc 8e 92 bd e2 01 0f 3e 09 dd 89 3d
       0.050499387 -0.07156131 0.13965562 0.06731612
000030 85 a8 0d 3e b4 72 bb bc b3 b7 7d 3d 44 d2 c8 bd
       0.13833816 -0.022881843 0.061942767 -0.0980573
000040 78 a7 d3 bd 45 16 80 bc 92 ec 86 bc 9c 9b 04 bd
       -0.103346765 -0.015635619 -0.016470227 -0.032374963
000050 72 c5 35 bd 8b a8 2b be b5 5a d3 3d ef 33 f0 3c
       -0.04437775 -0.16763513 0.10320035 0.029321639
000060 27 b5 ed 3c 7f 90 d6 3d 85 71 1e 3e 5a 2f 80 bd
       0.029017044 0.10476779 0.15472992 -0.062590316
000070 6e 35 eb 3d f6 ae 2c be 30 6e 0c be 29 42 f5 bd
       0.114848 -0.16863617 -0.13713908 -0.1197551
000080 1f 1c 2d 3e 01 1b bd bd 60 53 82 3d 33 ff 28 3c
       0.16905259 -0.09233666 0.06363559 0.0103147505
000090 e3 50 ee 3d 1f e2 e6 bd 70 02 cb 3c fd fe 36 3d
       0.11636522 -0.11273598 0.024781436 0.04467677
0000a0 45 29 ea bd 50 d1 10 3d c6 ac 8a 3d c4 2e fe bd
       -0.11433653 0.035355866 0.06771235 -0.124112636
0000b0 53 e7 4d 3e f4 cd b0 bb 51 06 06 bd 00 e1 9d 3c
       0.20107774 -0.0053956453 -0.032720868 0.019272327
0000c0 4e 43 c7 3d 4e 3d 84 bd 91 8a 0e bb 9b 26 57 bd
       0.09729634 -0.064570054 -0.0021750072 -0.05252705
0000d0 bc 53 35 3e 28 be 82 bc 91 b3 19 bc d8 20 77 3d
       0.17707723 -0.015959814 -0.009381191 0.060334057
0000e0 92 37 e6 3d d6 ed ed 3c ab bc 0f bd 41 aa 85 bd
       0.11241068 0.029044073 -0.035092037 -0.06526614
0000f0 03 40 f3 3c de 8e af bd 8f fb 07 3e 17 12 73 3d
       0.02969361 -0.08572172 0.13279556 0.059343424
000100 74 c8 5f bd 52 3f 8d 3d 8e 85 05 3d 7e d1 1b be
       -0.054634526 0.06896843 0.03259807 -0.15216634
000110 f1 78 d0 3d 7e c3 c6 bd b1 9f 14 be 2e cf 3b bd
       0.10179318 -0.09705256 -0.14514042 -0.04585188
000120 e0 6a 03 3e 98 43 8c 3d 01 cd 25 be 7e 83 1d 3d
       0.12833738 0.0684883 -0.16191484 0.03845548
000130 2c 7c 46 be 53 92 1e be 27 8f c9 bd 0c d4 da 3c
       -0.19383305 -0.15485506 -0.09841757 0.02671244
000140 23 7b 9f 3d 79 62 5a bd 81 cc 48 bd d1 82 d1 3d
       0.07787158 -0.053316567 -0.049023155 0.102300294
000150 6d 30 36 3e 6f 03 a8 3d 0e e3 a6 bd 48 dd 2b ba
       0.1779191 0.0820378 -0.08148776 -0.0006556106
000160 de 7c c4 3c f7 ce 1f 3e 81 fd 31 be 90 c2 17 3e
       0.023985323 0.15606295 -0.1738186 0.14820313
000170 39 91 f7 bd 8f 1d 08 be fb fd 65 bd a6 09 ee 3a
       -0.12088246 -0.13292526 -0.056150418 0.0018160834
000180 a8 eb 3e 3e 0d fc 4e 3e e4 9e ad 3d a8 b0 54 bd
       0.18644583 0.20213337 0.084775716 -0.051926285
000190 d2 48 08 3c 3f 57 41 3d 18 00 2c 3c 75 ed 18 3d
       0.008318143 0.047202345 0.010498069 0.03733583
0001a0 77 88 46 3e 3b a4 c9 3d 53 6c ac bc 7c ec cf 3d
       0.19387995 0.098457776 -0.021047747 0.10152528
0001b0 16 d8 7f 3d 5a 2c 20 3e bb 93 0f bc 50 e6 a8 3a
       0.062461935 0.15641919 -0.008763249 0.0012886021
0001c0 57 8c 29 3e 22 8b 74 3c 0a 59 1a 3c 42 04 0d be
       0.16557442 0.01492575 0.009420643 -0.13771155
0001d0 a6 aa fa bc 00 64 00 3e f3 b6 21 bd c4 91 c3 3d
       -0.03059895 0.12538147 -0.039481115 0.09549287
0001e0 5e a1 c8 3d 88 b5 98 3c 6b 7c 9c 3c 69 00 49 3d
       0.09796403 0.018641248 0.019102296 0.049072657
0001f0 4b 45 43 3e 84 fb fb 3b 44 26 08 3e 30 aa a4 bc
       0.19069402 0.007689895 0.13295847 -0.020100683

lstm.bias_hh_l1 f4 [128]
000000 9e 19 32 3e 0b df 88 bd 94 13 ad 3d 70 4d 27 3c
       0.17392585 -0.06683167 0.08451 0.010211334
000010 b6 d2 c4 3d 7d 10 1b 3e a1 d7 cd bd 6b 47 ae 3d
       0.096105024 0.15143009 -0.100508936 0.08509716
000020 fb 1c de 3d 88 83 e0 3d 21 71 f4 3d c6 f4 df 3d
       0.10845371 0.109625876 0.1193564 0.10935359
000030 98 ed 8c bd f2 44 f6 3c 0e aa 20 3d 59 ea 1d 3d
       -0.06881255 0.030062173 0.039224677 0.03855357
000040 26 cd c3 3d 53 55 9f 3d 3d 8f 7c 3c 1c 23 ce bd
       0.09560613 0.07779946 0.01541501 -0.1006529
000050 66 2b a5 bc b5 5c 19 be f5 08 0d be 13 14 da bd
       -0.020162296 -0.14976771 -0.13772948 -0.1064836
000060 5d b1 b9 bc f3 40 32 3e 5c 9a 0b 3e e1 43 20 3e
       -0.022667581 0.17407589 0.13633102 0.15650894
000070 a3 b1 09 3e 64 6d 03 be 69 46 d0 3d 52 a9 f9 bd
       0.1344667 -0.12834698 0.1016968 -0.121904984
000080 1f 75 0e be d8 cd bb 3c 30 6b 60 3d 16 54 3c bc
       -0.13911866 0.022925302 0.054789722 -0.011494657
000090 41 a4 c5 3c f0 38 6b 3d 55 1e 14 be d7 23 50 3d
       0.024126174 0.057427347 -0.14464696 0.05081543
0000a0 87 d0 ef 3c 43 1c ff 3d 66 49 8e 3d d5 4a 3c 3c
       0.029274238 0.12456562 0.069475934 0.011492451
0000b0 0b 8d 45 3e 74 94 25 bb f5 30 3a 3e e3 df ba bb
       0.19292085 -0.0025265487 0.18182738 -0.005702959
0000c0 23 74 64 bd 36 1b 6d 3d 57 68 f9 3d 8f 14 9e bd
       -0.05577482 0.05788728 0.12178104 -0.07718765
0000d0 20 05 9d bd 0c 88 18 3e be 38 fb 3d ee 09 f5 3d
       -0.07666993 0.14895648 0.12266682 0.119647846
0000e0 5f 28 4b 3d f0 94 07 be 3f ba 20 3e 2a f4 ec bd
       0.049599048 -0.13240409 0.15696047 -0.11570008
0000f0 66 71 93 bd 5d 6b 4d 3d 87 dd 06 be 27 4f e8 bd
       -0.071993634 0.050151218 -0.13170443 -0.11343222
000100 c8 33 35 bd cb c8 2f be 92 0f 41 bd 41 01 84 3d
       -0.044238836 -0.1716644 -0.04713399 0.06445552
000110 2a 96 ff bd 43 c3 3a 3c 41 e6 40 be 1c cd 4a 3d
       -0.124798134 0.011399093 -0.18837835 0.049512014
000120 ec 38 0f 3d da 67 ab bc 75 78 10 bd 29 dc 96 bb
       0.034966394 -0.020923544 -0.035271127 -0.004603882
000130 1b 0b f1 bd 95 86 97 bc e8 4f 0d 3e 55 8b 3c be
       -0.11769696 -0.01849679 0.13800013 -0.18412526
000140 e9 68 a1 bd 2b d0 29 bd 7d 76 63 bd ea e1 38 3d
       -0.07881338 -0.04145829 -0.05553292 0.045137323
000150 bf 14 bf 3d 57 de 2e bd 67 24 32 be 74 09 03 3e
       0.09330129 -0.04269251 -0.17396699 0.12796575
000160 90 13 48 be f2 0d 92 bd a7 a5 e2 3d ef 75 38 bc
       -0.19538713 -0.07131566 0.11066752 -0.011258586
000170 d5 64 9c bd 09 7b a9 bb 4a dc 15 3e 29 d6 25 3e
       -0.0763642 -0.0051721376 0.14634815 0.16194977
000180 e0 75 e6 3d 1b da 7a bd f7 03 b3 3d 49 13 97 3d
       0.112529516 -0.061243158 0.087409906 0.07376725
000190 71 e5 f4 bc b2 2a c2 3d 97 f9 4b 3d 7b ec ed 3d
       -0.029894562 0.094808 0.049798574 0.11617371
0001a0 b9 cf c3 bc 8d e5 b6 3b 9e db eb bc ae ed 83 3d
       -0.02390276 0.005581564 -0.028791245 0.06441818
0001b0 06 2c fa 3d 5c 7e 84 3d de aa 6f bd 05 e3 a1 3c
       0.12215428 0.06469414 -0.05851256 0.019761572
0001c0 b2 82 02 be 53 57 bc 3c 47 b1 13 3d ee 69 fd ba
       -0.12745169 0.022990858 0.036057737 -0.0019333938
0001d0 9c c9 d9 3c e5 73 bd bd 64 a7 4b bc 4a 42 64 bb
       0.026585393 -0.09250621 -0.012430046 -0.003482955
0001e0 94 6a 81 3d 21 b9 9c 3c 46 33 01 3e cc 12 54 3e
       0.06319156 0.019131245 0.12617216 0.20710295
0001f0 db 13 35 3e e6 f7 8d bd cc 48 c8 3d 03 4a 39 bd
       0.17683356 -0.069320485 0.0977951 -0.0452366

fc.weight f4 [1, 32]
000000 99 da c2 3d 32 87 27 3e ad 53 08 3e 3b 69 14 3e
       0.095143504 0.16360167 0.1331317 0.14493267
000010 b8 90 82 bd 5c d0 a0 bc 08 4b c6 3d 9d 5e 18 ba
       -0.06375259 -0.019630603 0.0968228 -0.00058124383
000020 78 b4 29 be 83 21 79 bc 73 91 86 bc be 0b f8 bd
       -0.1657275 -0.015205744 -0.016426777 -0.12111615
000030 00 b2 3b 3e 3b 05 30 3e b9 5d 31 be 87 78 08 3e
       0.1832962 0.17189495 -0.17320909 0.13327228
000040 76 de 69 bc 6e 76 88 bd 52 45 36 3e b7 c3 de 3d
       -0.01427423 -0.06663214 0.17799881 0.108771734
000050 6d 2e 40 be 22 00 b7 3d 33 96 4e 3e a1 87 5c 3d
       -0.1876771 0.08935572 0.20174484 0.053840283
000060 cd 41 3f 3e 26 79 fa bd ee b2 2d 3e 09 df 0a bd
       0.18677445 -0.122301385 0.16962788 -0.03390411
000070 a8 19 43 3e a1 23 9f 3d b6 69 cf 3b 21 ec 3d be
       0.19052756 0.077704675 0.0063297404 -0.18547107
